…
Epoch 00010: val_loss improved from inf to 0.37725, saving model to /home/zadubrov/output/results_train/AR_single-labeled_Fold-0.model.weights.hdf5
<IPython.core.display.HTML object>
INFO     Computation time for training the single-label model for AR: 0.18 min











































































Permutation explainer: 1886it [02:41, 10.96it/s]
INFO     Network type: FNN
INFO     Model: "sequential"
INFO     _________________________________________________________________
INFO     Layer (type)                 Output Shape              Param #
INFO     =================================================================
INFO     dense (Dense)                (None, 1024)              2098176
INFO     _________________________________________________________________
INFO     alpha_dropout (AlphaDropout) (None, 1024)              0
INFO     _________________________________________________________________
INFO     dense_1 (Dense)              (None, 512)               524800
INFO     _________________________________________________________________
INFO     alpha_dropout_1 (AlphaDropou (None, 512)               0
INFO     _________________________________________________________________
INFO     dense_2 (Dense)              (None, 256)               131328
INFO     _________________________________________________________________
INFO     alpha_dropout_2 (AlphaDropou (None, 256)               0
INFO     _________________________________________________________________
INFO     dense_3 (Dense)              (None, 128)               32896
INFO     _________________________________________________________________
INFO     alpha_dropout_3 (AlphaDropou (None, 128)               0
INFO     _________________________________________________________________
INFO     dense_4 (Dense)              (None, 1)                 129
INFO     =================================================================
INFO     Total params: 2,787,329
INFO     Trainable params: 2,787,329
INFO     Non-trainable params: 0
INFO     _________________________________________________________________
INFO     Evaluating trained model 'AR single-labeled Fold-0' on test data
37/37 [==============================] - 1s 6ms/step - loss: 1.1617 - accuracy: 0.1816 - auc: 0.5456 - precision: 0.1773 - recall: 0.9811 - balanced_accuracy: 0.4924
…
