…
Epoch 00010: val_loss improved from inf to 0.37866, saving model to /home/zadubrov/output/results_train/AR_single-labeled_Fold-0.model.weights.hdf5
INFO     Computation time for training the single-label model for AR: 0.21 min
<IPython.core.display.HTML object>












































































Permutation explainer: 1897it [02:44, 11.00it/s]
INFO     Network type: FNN
INFO     Model: "sequential"
INFO     _________________________________________________________________
INFO     Layer (type)                 Output Shape              Param #
INFO     =================================================================
INFO     dense (Dense)                (None, 1024)              2098176
INFO     _________________________________________________________________
INFO     alpha_dropout (AlphaDropout) (None, 1024)              0
INFO     _________________________________________________________________
INFO     dense_1 (Dense)              (None, 512)               524800
INFO     _________________________________________________________________
INFO     alpha_dropout_1 (AlphaDropou (None, 512)               0
INFO     _________________________________________________________________
INFO     dense_2 (Dense)              (None, 256)               131328
INFO     _________________________________________________________________
INFO     alpha_dropout_2 (AlphaDropou (None, 256)               0
INFO     _________________________________________________________________
INFO     dense_3 (Dense)              (None, 128)               32896
INFO     _________________________________________________________________
INFO     alpha_dropout_3 (AlphaDropou (None, 128)               0
INFO     _________________________________________________________________
INFO     dense_4 (Dense)              (None, 1)                 129
INFO     =================================================================
INFO     Total params: 2,787,329
INFO     Trainable params: 2,787,329
INFO     Non-trainable params: 0
INFO     _________________________________________________________________
INFO     Evaluating trained model 'AR single-labeled Fold-0' on test data
37/37 [==============================] - 1s 8ms/step - loss: 0.5372 - accuracy: 0.8074 - auc: 0.5278 - precision: 0.3333 - recall: 0.0755 - balanced_accuracy: 0.5162
…
Epoch 00010: val_loss improved from inf to 0.29395, saving model to /home/zadubrov/output/results_train/Aromatase_single-labeled_Fold-0.model.weights.hdf5
INFO     Computation time for training the single-label model for Aromatase: 0.11 min









































































Permutation explainer: 1906it [02:39, 11.23it/s]
INFO     Network type: FNN
INFO     Model: "sequential"
INFO     _________________________________________________________________
INFO     Layer (type)                 Output Shape              Param #
INFO     =================================================================
INFO     dense (Dense)                (None, 1024)              2098176
INFO     _________________________________________________________________
INFO     alpha_dropout (AlphaDropout) (None, 1024)              0
INFO     _________________________________________________________________
INFO     dense_1 (Dense)              (None, 512)               524800
INFO     _________________________________________________________________
INFO     alpha_dropout_1 (AlphaDropou (None, 512)               0
INFO     _________________________________________________________________
INFO     dense_2 (Dense)              (None, 256)               131328
INFO     _________________________________________________________________
INFO     alpha_dropout_2 (AlphaDropou (None, 256)               0
INFO     _________________________________________________________________
INFO     dense_3 (Dense)              (None, 128)               32896
INFO     _________________________________________________________________
INFO     alpha_dropout_3 (AlphaDropou (None, 128)               0
INFO     _________________________________________________________________
INFO     dense_4 (Dense)              (None, 1)                 129
INFO     =================================================================
INFO     Total params: 2,787,329
INFO     Trainable params: 2,787,329
INFO     Non-trainable params: 0
INFO     _________________________________________________________________
INFO     Evaluating trained model 'Aromatase single-labeled Fold-0' on test data
INFO     Loss: 0.6088
INFO     Accuracy: 0.6921
INFO     AUC: 0.5434
INFO     Precision: 0.1341
INFO     Recall: 0.3165
INFO     Balanced Accuracy: nan
INFO     MCC: 0.0404
INFO     Network type: FNN
INFO     Model: "sequential_1"
INFO     _________________________________________________________________
INFO     Layer (type)                 Output Shape              Param #
INFO     =================================================================
INFO     dense_5 (Dense)              (None, 1024)              2098176
INFO     _________________________________________________________________
INFO     alpha_dropout_4 (AlphaDropou (None, 1024)              0
INFO     _________________________________________________________________
INFO     dense_6 (Dense)              (None, 512)               524800
INFO     _________________________________________________________________
INFO     alpha_dropout_5 (AlphaDropou (None, 512)               0
INFO     _________________________________________________________________
INFO     dense_7 (Dense)              (None, 256)               131328
INFO     _________________________________________________________________
INFO     alpha_dropout_6 (AlphaDropou (None, 256)               0
INFO     _________________________________________________________________
INFO     dense_8 (Dense)              (None, 128)               32896
INFO     _________________________________________________________________
INFO     alpha_dropout_7 (AlphaDropou (None, 128)               0
INFO     _________________________________________________________________
INFO     dense_9 (Dense)              (None, 1)                 129
INFO     =================================================================
INFO     Total params: 2,787,329
INFO     Trainable params: 2,787,329
INFO     Non-trainable params: 0
INFO     _________________________________________________________________
39/39 [==============================] - 1s 9ms/step - loss: 0.6088 - accuracy: 0.6921 - auc: 0.5434 - precision: 0.1341 - recall: 0.3165 - balanced_accuracy: nan
…
