…
37/37 - 0s - loss: 0.3816 - accuracy: 0.8496 - auc: 0.7794 - precision: 0.7368 - recall: 0.2479 - balanced_accuracy: 0.6124 - val_loss: 0.3657 - val_accuracy: 0.8497 - val_auc: 0.7990 - val_precision: 0.7500 - val_recall: 0.2406 - val_balanced_accuracy: 0.6051
Epoch 00010: val_loss improved from inf to 0.36574, saving model to /gpfs0/home/zadubrov/deepFPlearn_exai/example/results_train/AR_single-labeled_Fold-0.model.weights.hdf5
INFO     Computation time for training the single-label model for AR: 0.25 min
INFO     Network type: FNN
INFO     Model: "sequential"
INFO     _________________________________________________________________
INFO     Layer (type)                 Output Shape              Param #
INFO     =================================================================
INFO     dense (Dense)                (None, 1024)              2098176
INFO     _________________________________________________________________
INFO     alpha_dropout (AlphaDropout) (None, 1024)              0
INFO     _________________________________________________________________
INFO     dense_1 (Dense)              (None, 512)               524800
INFO     _________________________________________________________________
INFO     alpha_dropout_1 (AlphaDropou (None, 512)               0
INFO     _________________________________________________________________
INFO     dense_2 (Dense)              (None, 256)               131328
INFO     _________________________________________________________________
INFO     alpha_dropout_2 (AlphaDropou (None, 256)               0
INFO     _________________________________________________________________
INFO     dense_3 (Dense)              (None, 128)               32896
INFO     _________________________________________________________________
INFO     alpha_dropout_3 (AlphaDropou (None, 128)               0
INFO     _________________________________________________________________
INFO     dense_4 (Dense)              (None, 1)                 129
INFO     =================================================================
INFO     Total params: 2,787,329
INFO     Trainable params: 2,787,329
INFO     Non-trainable params: 0
INFO     _________________________________________________________________
INFO     Evaluating trained model 'AR single-labeled Fold-0' on test data
21/37 [================>.............] - ETA: 0s - loss: 1.1768 - accuracy: 0.1890 - auc: 0.5105 - precision: 0.1840 - recall: 0.9683 - balanced_accuracy: 0.4913
…
Epoch 00010: val_loss improved from inf to 0.25361, saving model to /gpfs0/home/zadubrov/deepFPlearn_exai/example/results_train/GR_single-labeled_Fold-0.model.weights.hdf5
INFO     Computation time for training the single-label model for GR: 0.13 min
38/38 [==============================] - 1s 4ms/step - loss: 0.8321 - accuracy: 0.2841 - auc: 0.4723 - precision: 0.0936 - recall: 0.7167 - balanced_accuracy: nan
INFO     Network type: FNN
INFO     Model: "sequential"
INFO     _________________________________________________________________
INFO     Layer (type)                 Output Shape              Param #
INFO     =================================================================
INFO     dense (Dense)                (None, 1024)              2098176
INFO     _________________________________________________________________
INFO     alpha_dropout (AlphaDropout) (None, 1024)              0
INFO     _________________________________________________________________
INFO     dense_1 (Dense)              (None, 512)               524800
INFO     _________________________________________________________________
INFO     alpha_dropout_1 (AlphaDropou (None, 512)               0
INFO     _________________________________________________________________
INFO     dense_2 (Dense)              (None, 256)               131328
INFO     _________________________________________________________________
INFO     alpha_dropout_2 (AlphaDropou (None, 256)               0
INFO     _________________________________________________________________
INFO     dense_3 (Dense)              (None, 128)               32896
INFO     _________________________________________________________________
INFO     alpha_dropout_3 (AlphaDropou (None, 128)               0
INFO     _________________________________________________________________
INFO     dense_4 (Dense)              (None, 1)                 129
INFO     =================================================================
INFO     Total params: 2,787,329
INFO     Trainable params: 2,787,329
INFO     Non-trainable params: 0
INFO     _________________________________________________________________
INFO     Evaluating trained model 'GR single-labeled Fold-0' on test data
INFO     Loss: 0.8321
INFO     Accuracy: 0.2841
INFO     AUC: 0.4723
INFO     Precision: 0.0936
INFO     Recall: 0.7167
INFO     Balanced Accuracy: nan
INFO     MCC: -0.0327
INFO     Network type: FNN
INFO     Model: "sequential_1"
INFO     _________________________________________________________________
INFO     Layer (type)                 Output Shape              Param #
INFO     =================================================================
INFO     dense_5 (Dense)              (None, 1024)              2098176
INFO     _________________________________________________________________
INFO     alpha_dropout_4 (AlphaDropou (None, 1024)              0
INFO     _________________________________________________________________
INFO     dense_6 (Dense)              (None, 512)               524800
INFO     _________________________________________________________________
INFO     alpha_dropout_5 (AlphaDropou (None, 512)               0
INFO     _________________________________________________________________
INFO     dense_7 (Dense)              (None, 256)               131328
INFO     _________________________________________________________________
INFO     alpha_dropout_6 (AlphaDropou (None, 256)               0
INFO     _________________________________________________________________
INFO     dense_8 (Dense)              (None, 128)               32896
INFO     _________________________________________________________________
INFO     alpha_dropout_7 (AlphaDropou (None, 128)               0
INFO     _________________________________________________________________
INFO     dense_9 (Dense)              (None, 1)                 129
INFO     =================================================================
INFO     Total params: 2,787,329
INFO     Trainable params: 2,787,329
INFO     Non-trainable params: 0
INFO     _________________________________________________________________
Epoch 1/10
INFO:tensorflow:Assets written to: /gpfs0/home/zadubrov/deepFPlearn_exai/example/results_train/GR_saved_model/assets
INFO     Assets written to: /gpfs0/home/zadubrov/deepFPlearn_exai/example/results_train/GR_saved_model/assets
…
