…
Epoch 00010: val_loss improved from inf to 0.37828, saving model to /home/zadubrov/output/results_train/AR_single-labeled_Fold-0.model.weights.hdf5
31/37 [========================>.....] - ETA: 0s - loss: 0.5220 - accuracy: 0.8165 - auc: 0.5220 - precision: 0.4375 - recall: 0.0389 - balanced_accuracy: 0.5109
INFO     Computation time for training the single-label model for AR: 0.16 min
INFO     Network type: FNN
INFO     Model: "sequential"
INFO     _________________________________________________________________
INFO     Layer (type)                 Output Shape              Param #
INFO     =================================================================
INFO     dense (Dense)                (None, 1024)              2098176
INFO     _________________________________________________________________
INFO     alpha_dropout (AlphaDropout) (None, 1024)              0
INFO     _________________________________________________________________
INFO     dense_1 (Dense)              (None, 512)               524800
INFO     _________________________________________________________________
INFO     alpha_dropout_1 (AlphaDropou (None, 512)               0
INFO     _________________________________________________________________
INFO     dense_2 (Dense)              (None, 256)               131328
INFO     _________________________________________________________________
INFO     alpha_dropout_2 (AlphaDropou (None, 256)               0
INFO     _________________________________________________________________
INFO     dense_3 (Dense)              (None, 128)               32896
INFO     _________________________________________________________________
INFO     alpha_dropout_3 (AlphaDropou (None, 128)               0
INFO     _________________________________________________________________
INFO     dense_4 (Dense)              (None, 1)                 129
INFO     =================================================================
INFO     Total params: 2,787,329
INFO     Trainable params: 2,787,329
INFO     Non-trainable params: 0
INFO     _________________________________________________________________

37/37 [==============================] - 1s 10ms/step - loss: 0.5210 - accuracy: 0.8167 - auc: 0.5147 - precision: 0.3810 - recall: 0.0377 - balanced_accuracy: 0.5090
…
