…
Epoch 00010: val_loss improved from inf to 0.39179, saving model to /home/zadubrov/output/results_train/AR_single-labeled_Fold-0.model.weights.hdf5
 1/37 [..............................] - ETA: 26s - loss: 0.4061 - accuracy: 0.9062 - auc: 0.3161 - precision: 0.0000e+00 - recall: 0.0000e+00 - balanced_accuracy: 0.5000
INFO     Computation time for training the single-label model for AR: 0.21 min
INFO     Network type: FNN
INFO     Model: "sequential"
INFO     _________________________________________________________________
INFO     Layer (type)                 Output Shape              Param #
INFO     =================================================================
INFO     dense (Dense)                (None, 1024)              2098176
INFO     _________________________________________________________________
INFO     alpha_dropout (AlphaDropout) (None, 1024)              0
INFO     _________________________________________________________________
INFO     dense_1 (Dense)              (None, 512)               524800
INFO     _________________________________________________________________
INFO     alpha_dropout_1 (AlphaDropou (None, 512)               0
INFO     _________________________________________________________________
INFO     dense_2 (Dense)              (None, 256)               131328
INFO     _________________________________________________________________
INFO     alpha_dropout_2 (AlphaDropou (None, 256)               0
INFO     _________________________________________________________________
INFO     dense_3 (Dense)              (None, 128)               32896
INFO     _________________________________________________________________
INFO     alpha_dropout_3 (AlphaDropou (None, 128)               0
INFO     _________________________________________________________________
INFO     dense_4 (Dense)              (None, 1)                 129
INFO     =================================================================
INFO     Total params: 2,787,329
INFO     Trainable params: 2,787,329
INFO     Non-trainable params: 0
INFO     _________________________________________________________________

37/37 [==============================] - 1s 9ms/step - loss: 0.4934 - accuracy: 0.8201 - auc: 0.5095 - precision: 0.0000e+00 - recall: 0.0000e+00 - balanced_accuracy: 0.4995
…
35/35 - 0s - loss: 0.3130 - accuracy: 0.8934 - auc_2: 0.6987 - precision_2: 0.3571 - recall_2: 0.0108 - balanced_accuracy: 0.5043 - val_loss: 0.2949 - val_accuracy: 0.8956 - val_auc_2: 0.7706 - val_precision_2: 0.6667 - val_recall_2: 0.0174 - val_balanced_accuracy: 0.5054
Epoch 00010: val_loss improved from inf to 0.29488, saving model to /home/zadubrov/output/results_train/PPARg_single-labeled_Fold-0.model.weights.hdf5
INFO     Computation time for training the single-label model for PPARg: 0.11 min
INFO     Network type: FNN
INFO     Model: "sequential"
INFO     _________________________________________________________________
INFO     Layer (type)                 Output Shape              Param #
INFO     =================================================================
INFO     dense (Dense)                (None, 1024)              2098176
INFO     _________________________________________________________________
INFO     alpha_dropout (AlphaDropout) (None, 1024)              0
INFO     _________________________________________________________________
INFO     dense_1 (Dense)              (None, 512)               524800
INFO     _________________________________________________________________
INFO     alpha_dropout_1 (AlphaDropou (None, 512)               0
INFO     _________________________________________________________________
INFO     dense_2 (Dense)              (None, 256)               131328
INFO     _________________________________________________________________
INFO     alpha_dropout_2 (AlphaDropou (None, 256)               0
INFO     _________________________________________________________________
INFO     dense_3 (Dense)              (None, 128)               32896
INFO     _________________________________________________________________
INFO     alpha_dropout_3 (AlphaDropou (None, 128)               0
INFO     _________________________________________________________________
INFO     dense_4 (Dense)              (None, 1)                 129
INFO     =================================================================
INFO     Total params: 2,787,329
INFO     Trainable params: 2,787,329
INFO     Non-trainable params: 0
INFO     _________________________________________________________________
INFO     Evaluating trained model 'PPARg single-labeled Fold-0' on test data
INFO     Loss: 0.4463
INFO     Accuracy: 0.8883
INFO     AUC: 0.4868
INFO     Precision: 0.2941
INFO     Recall: 0.0435
INFO     Balanced Accuracy: nan
INFO     MCC: 0.0774
INFO     Network type: FNN
INFO     Model: "sequential_1"
INFO     _________________________________________________________________
INFO     Layer (type)                 Output Shape              Param #
INFO     =================================================================
INFO     dense_5 (Dense)              (None, 1024)              2098176
INFO     _________________________________________________________________
INFO     alpha_dropout_4 (AlphaDropou (None, 1024)              0
INFO     _________________________________________________________________
INFO     dense_6 (Dense)              (None, 512)               524800
INFO     _________________________________________________________________
INFO     alpha_dropout_5 (AlphaDropou (None, 512)               0
INFO     _________________________________________________________________
INFO     dense_7 (Dense)              (None, 256)               131328
35/35 [==============================] - 2s 10ms/step - loss: 0.4463 - accuracy: 0.8883 - auc: 0.4868 - precision: 0.2941 - recall: 0.0435 - balanced_accuracy: nan
INFO     alpha_dropout_6 (AlphaDropou (None, 256)               0
INFO     _________________________________________________________________
INFO     dense_8 (Dense)              (None, 128)               32896
INFO     _________________________________________________________________
INFO     alpha_dropout_7 (AlphaDropou (None, 128)               0
INFO     _________________________________________________________________
INFO     dense_9 (Dense)              (None, 1)                 129
INFO     =================================================================
INFO     Total params: 2,787,329
INFO     Trainable params: 2,787,329
INFO     Non-trainable params: 0
INFO     _________________________________________________________________
INFO:tensorflow:Assets written to: /home/zadubrov/output/results_train/PPARg_saved_model/assets
INFO     Assets written to: /home/zadubrov/output/results_train/PPARg_saved_model/assets
…
