…
35/35 - 0s - loss: 0.4774 - accuracy: 0.7858 - auc: 0.7408 - precision: 0.6120 - recall: 0.2860 - balanced_accuracy: 0.6151 - val_loss: 0.4449 - val_accuracy: 0.8095 - val_auc: 0.7844 - val_precision: 0.6897 - val_recall: 0.3731 - val_balanced_accuracy: 0.6616
Epoch 9/10
INFO     Computation time for training the single-label model for ER: 0.21 min
INFO     Network type: FNN
INFO     Model: "sequential"
INFO     _________________________________________________________________
INFO     Layer (type)                 Output Shape              Param #
INFO     =================================================================
INFO     dense (Dense)                (None, 1024)              2098176
INFO     _________________________________________________________________
INFO     alpha_dropout (AlphaDropout) (None, 1024)              0
INFO     _________________________________________________________________
INFO     dense_1 (Dense)              (None, 512)               524800
INFO     _________________________________________________________________
INFO     alpha_dropout_1 (AlphaDropou (None, 512)               0
INFO     _________________________________________________________________
INFO     dense_2 (Dense)              (None, 256)               131328
INFO     _________________________________________________________________
INFO     alpha_dropout_2 (AlphaDropou (None, 256)               0
INFO     _________________________________________________________________
INFO     dense_3 (Dense)              (None, 128)               32896
INFO     _________________________________________________________________
INFO     alpha_dropout_3 (AlphaDropou (None, 128)               0
INFO     _________________________________________________________________
INFO     dense_4 (Dense)              (None, 1)                 129
INFO     =================================================================
INFO     Total params: 2,787,329
INFO     Trainable params: 2,787,329
INFO     Non-trainable params: 0
INFO     _________________________________________________________________
INFO     Evaluating trained model 'ER single-labeled Fold-0' on test data
35/35 - 0s - loss: 0.4667 - accuracy: 0.7880 - auc: 0.7552 - precision: 0.6196 - recall: 0.2953 - balanced_accuracy: 0.6190 - val_loss: 0.4405 - val_accuracy: 0.8104 - val_auc: 0.7882 - val_precision: 0.6867 - val_recall: 0.3843 - val_balanced_accuracy: 0.6656
…
